…
Cause: could not parse the source code of <function <lambda> at 0x0000021F5A37ED30>: no matching AST found among candidates:
To silence this warning, decorate the function with @tf.autograph.experimental.do_not_convert
<MapDataset element_spec=TensorSpec(shape=(None, 360, 240, 3), dtype=tf.float32, name=None)>
(4, 360, 240, 3)
In range between:  0.0  and:  1.0
Wall time: 22min 44s
Generating DCGAN model.
DCGAN model completed
(1, 360, 240, 3)
Model: "sequential"
_________________________________________________________________
 Layer (type)                Output Shape              Param #
=================================================================
 dense (Dense)               (None, 345600)            34560000
 reshape (Reshape)           (None, 45, 30, 256)       0
 conv2d_transpose (Conv2DTra  (None, 45, 30, 128)      819200
 nspose)
 leaky_re_lu (LeakyReLU)     (None, 45, 30, 128)       0
 conv2d_transpose_1 (Conv2DT  (None, 90, 60, 64)       204800
 ranspose)
 leaky_re_lu_1 (LeakyReLU)   (None, 90, 60, 64)        0
 conv2d_transpose_2 (Conv2DT  (None, 180, 120, 32)     51200
 ranspose)
 leaky_re_lu_2 (LeakyReLU)   (None, 180, 120, 32)      0
 conv2d_transpose_3 (Conv2DT  (None, 360, 240, 3)      2400
 ranspose)
=================================================================
Total params: 35,637,600
Trainable params: 35,637,600
Non-trainable params: 0
_________________________________________________________________
Wall time: 14.2 s
DCGAN descriminator model
(None, 1)
DCGAN descriminator Completed!!
tf.Tensor([[0.49997866]], shape=(1, 1), dtype=float32)
Model: "sequential_1"
_________________________________________________________________
 Layer (type)                Output Shape              Param #
=================================================================
 conv2d (Conv2D)             (None, 180, 120, 32)      2432
 leaky_re_lu_3 (LeakyReLU)   (None, 180, 120, 32)      0
 conv2d_1 (Conv2D)           (None, 90, 60, 64)        51264
 leaky_re_lu_4 (LeakyReLU)   (None, 90, 60, 64)        0
 conv2d_2 (Conv2D)           (None, 45, 30, 128)       204928
 leaky_re_lu_5 (LeakyReLU)   (None, 45, 30, 128)       0
 conv2d_3 (Conv2D)           (None, 23, 15, 256)       819456
 leaky_re_lu_6 (LeakyReLU)   (None, 23, 15, 256)       0
 flatten (Flatten)           (None, 88320)             0
 dropout (Dropout)           (None, 88320)             0
 dense_1 (Dense)             (None, 1)                 88321
=================================================================
Total params: 1,166,401
Trainable params: 1,166,401
Non-trainable params: 0
_________________________________________________________________
Training Start...
Epoch : 0
Training step
Generator for noise
Discriminator for images
Discriminator for noise
C:\Users\alexd\.conda\envs\tf-gpu\lib\site-packages\tensorflow\python\util\dispatch.py:1082: UserWarning: "`binary_crossentropy` received `from_logits=True`, but the `output` argument was produced by a sigmoid or softmax activation and thus does not represent logits. Was this intended?"
…
