…
(None, 45, 30, 128)
Adding 2nd Batch Normalization...
Adding 2nd Leaky ReLU...
Adding 2nd Convolution...
(None, 90, 60, 64)
Adding 3rd Batch Normalization...
Adding 3rd Leaky ReLU...
Adding 3rd Convolution...
(None, 180, 120, 32)
Adding 4th Batch Normalization...
Adding 4th Leaky ReLU...
Adding 4th Convolution...
(None, 360, 240, 3)
DCGAN model completed
(1, 360, 240, 3)
Model: "sequential"
_________________________________________________________________
 Layer (type)                Output Shape              Param #
=================================================================
 dense (Dense)               (None, 345600)            34560000
 batch_normalization (BatchN  (None, 345600)           1382400
 ormalization)
 leaky_re_lu (LeakyReLU)     (None, 345600)            0
 reshape (Reshape)           (None, 45, 30, 256)       0
 conv2d_transpose (Conv2DTra  (None, 45, 30, 128)      819200
 nspose)
 batch_normalization_1 (Batc  (None, 45, 30, 128)      512
 hNormalization)
 leaky_re_lu_1 (LeakyReLU)   (None, 45, 30, 128)       0
 conv2d_transpose_1 (Conv2DT  (None, 90, 60, 64)       204800
 ranspose)
 batch_normalization_2 (Batc  (None, 90, 60, 64)       256
 hNormalization)
 leaky_re_lu_2 (LeakyReLU)   (None, 90, 60, 64)        0
 conv2d_transpose_2 (Conv2DT  (None, 180, 120, 32)     51200
 ranspose)
 batch_normalization_3 (Batc  (None, 180, 120, 32)     128
 hNormalization)
 leaky_re_lu_3 (LeakyReLU)   (None, 180, 120, 32)      0
 conv2d_transpose_3 (Conv2DT  (None, 360, 240, 3)      2400
 ranspose)
=================================================================
Total params: 37,020,896
Trainable params: 36,329,248
Non-trainable params: 691,648
_________________________________________________________________
Wall time: 10.8 s
DCGAN descriminator model
Adding Convolutional...
Adding Leaky Relu...
Adding 2nd Convolutional...
Adding 2nd Leaky Relu...
Adding 3rd Convolutional...
Adding 3rd Leaky Relu...
Adding 4th Convolutional...
Adding 4th Leaky Relu...
Adding Flatten...
Adding Dense...
(None, 1)
DCGAN descriminator Completed!!
tf.Tensor([[0.00014148]], shape=(1, 1), dtype=float32)
Model: "sequential_1"
_________________________________________________________________
 Layer (type)                Output Shape              Param #
=================================================================
 conv2d (Conv2D)             (None, 180, 120, 32)      2432
 leaky_re_lu_4 (LeakyReLU)   (None, 180, 120, 32)      0
 dropout (Dropout)           (None, 180, 120, 32)      0
 conv2d_1 (Conv2D)           (None, 90, 60, 64)        51264
 leaky_re_lu_5 (LeakyReLU)   (None, 90, 60, 64)        0
 dropout_1 (Dropout)         (None, 90, 60, 64)        0
 conv2d_2 (Conv2D)           (None, 45, 30, 128)       204928
 leaky_re_lu_6 (LeakyReLU)   (None, 45, 30, 128)       0
 dropout_2 (Dropout)         (None, 45, 30, 128)       0
 conv2d_3 (Conv2D)           (None, 23, 15, 256)       819456
 leaky_re_lu_7 (LeakyReLU)   (None, 23, 15, 256)       0
 dropout_3 (Dropout)         (None, 23, 15, 256)       0
 flatten (Flatten)           (None, 88320)             0
 dense_1 (Dense)             (None, 1)                 88321
=================================================================
Total params: 1,166,401
Trainable params: 1,166,401
Non-trainable params: 0
_________________________________________________________________
WARNING:tensorflow:From <timed exec>:1: _CollectiveAllReduceStrategyExperimental.__init__ (from tensorflow.python.distribute.collective_all_reduce_strategy) is deprecated and will be removed in a future version.
…
Generator for noise
Discriminator for images
Discriminator for noise
gen_loss : Tensor("binary_crossentropy/weighted_loss/value:0", shape=(), dtype=float32)
disc_loss : Tensor("add:0", shape=(), dtype=float32)
Time for epoch 1 is 1155.8805828094482 sec
Generating DCGAN model.
(None, 45, 30, 256)
(None, 45, 30, 128)
DCGAN model completed
(1, 360, 240, 3)
Model: "sequential_2"
_________________________________________________________________
 Layer (type)                Output Shape              Param #
=================================================================
 dense_2 (Dense)             (None, 345600)            34560000
 reshape_1 (Reshape)         (None, 45, 30, 256)       0
 conv2d_transpose_4 (Conv2DT  (None, 45, 30, 128)      819200
 ranspose)
 leaky_re_lu_8 (LeakyReLU)   (None, 45, 30, 128)       0
 conv2d_transpose_5 (Conv2DT  (None, 90, 60, 64)       204800
 ranspose)
 leaky_re_lu_9 (LeakyReLU)   (None, 90, 60, 64)        0
 conv2d_transpose_6 (Conv2DT  (None, 180, 120, 32)     51200
 ranspose)
 leaky_re_lu_10 (LeakyReLU)  (None, 180, 120, 32)      0
 conv2d_transpose_7 (Conv2DT  (None, 360, 240, 3)      2400
 ranspose)
=================================================================
Total params: 35,637,600
Trainable params: 35,637,600
Non-trainable params: 0
_________________________________________________________________
Wall time: 161 ms
Generating DCGAN model.
(None, 45, 30, 256)
(None, 45, 30, 128)
DCGAN model completed
(1, 360, 240, 3)
Model: "sequential_3"
_________________________________________________________________
 Layer (type)                Output Shape              Param #
=================================================================
 dense_3 (Dense)             (None, 345600)            34560000
 reshape_2 (Reshape)         (None, 45, 30, 256)       0
 conv2d_transpose_8 (Conv2DT  (None, 45, 30, 128)      819200
 ranspose)
 leaky_re_lu_11 (LeakyReLU)  (None, 45, 30, 128)       0
 conv2d_transpose_9 (Conv2DT  (None, 90, 60, 64)       204800
 ranspose)
 leaky_re_lu_12 (LeakyReLU)  (None, 90, 60, 64)        0
 conv2d_transpose_10 (Conv2D  (None, 180, 120, 32)     51200
 Transpose)
 leaky_re_lu_13 (LeakyReLU)  (None, 180, 120, 32)      0
 conv2d_transpose_11 (Conv2D  (None, 360, 240, 3)      2400
 Transpose)
=================================================================
Total params: 35,637,600
Trainable params: 35,637,600
Non-trainable params: 0
_________________________________________________________________
Wall time: 158 ms
WARNING:tensorflow:Collective ops is not configured at program startup. Some performance features may not be enabled.
INFO:tensorflow:Single-worker MultiWorkerMirroredStrategy with local_devices = ('/device:GPU:0',), communication = CommunicationImplementation.AUTO
…
